app/model.onnx (onnx, 929773 bytes, 3 tensors)

layer3 f4 [1, 500]
000000 20 e8 65 3f 8e 1f bc 3e d6 a7 ff 3e dc db cb 3c
       0.8980732 0.36742824 0.49932736 0.02488511
000010 b3 a6 15 c0 fe 0d 85 3b 34 71 d2 be bc d0 85 bf
       -2.3382995 0.004060506 -0.41101992 -1.0454326
000020 75 42 0c 40 fe 7c 4e bf cd 33 0d bf 5d 89 1b bf
       2.1915562 -0.8065947 -0.55157167 -0.60756475
000030 23 f2 29 c0 f4 0f f4 3f c2 ac a4 3f a8 3e 1f 3f
       -2.6554039 1.9067369 1.2865222 0.6220498
000040 d9 78 96 be 4a 00 c3 bf 99 97 22 c0 7e 10 9c 3f
       -0.29389074 -1.5234463 -2.5405028 1.2192533
000050 10 30 85 3f 69 74 93 bf 7c 1d ad bf 38 0d c2 3e
       1.0405293 -1.15199 -1.3524623 0.3790071
000060 2f 49 aa bf 2a 57 c8 3f ea c6 cf 3f 7e c3 fe 3e
       -1.3303584 1.56516 1.6232579 0.49758524
000070 89 0f 12 c0 e4 f1 e3 bf 2e 31 80 3f dc 28 8a 3d
       -2.2821982 -1.7808194 1.0015008 0.067460746
000080 8c 04 ff 3e ed e6 07 c0 e5 af 00 3f a3 b5 9f 3f
       0.49808156 -2.1234696 0.50268394 1.2477306
000090 30 ec fe 3e c7 ac 93 3f c0 62 07 bf bf 9d b6 3f
       0.49789572 1.1537102 -0.52885056 1.426689
0000a0 45 9f 86 bf 58 58 9c 3f 16 87 16 3f 8f 51 01 40
       -1.0517355 1.221446 0.58799875 2.020603
0000b0 b4 78 ef 3c dd af c2 bf 04 b6 a0 3f 69 46 03 c0
       0.02923236 -1.5209919 1.2555547 -2.0511725
0000c0 64 a4 f9 3f 77 8c ae bf c3 f7 85 3e 7a e6 3a c0
       1.9503293 -1.3636616 0.2616559 -2.9203172
0000d0 ab 8f 1a 40 9f f2 64 bf 77 63 a6 3e a8 ce 82 bf
       2.4150188 -0.8943271 0.3249776 -1.0219316
0000e0 30 29 71 3f 11 ea 6a bf b4 3f 52 3f 81 9e cf 3c
       0.9420347 -0.91763407 0.82128453 0.025344135
0000f0 7c 13 04 bf 74 2e b7 bf 3e fa 9e bf 28 44 c0 3f
       -0.5159223 -1.4311051 -1.2420118 1.50208
000100 fc 9a 75 be 09 c2 a1 bf a9 a9 ea bf af 23 0d 40
       -0.23984903 -1.263734 -1.8333026 2.205303
000110 2b de a8 3e 6c f1 f9 be 44 dc 51 3e 07 cc 93 3f
       0.32982 -0.48817003 0.20494181 1.1546639
000120 98 eb b5 bf e5 9d 79 bf 6c 69 84 bf 1a 25 03 bf
       -1.4212523 -0.9750655 -1.0344672 -0.5122849
000130 e0 54 a2 3f b6 ee 51 be d2 08 17 3e 73 d2 1d 3f
       1.2682152 -0.20501217 0.14749458 0.61649245
000140 2e 0d 30 40 53 0b 99 3e 04 c1 a1 3f 88 ff ff 3d
       2.7508044 0.29891452 1.2637029 0.124999106
000150 45 09 72 3e 77 25 04 c0 5b db 04 40 92 68 49 3f
       0.23636349 -2.0647867 2.0758884 0.78675187
000160 66 04 2b 40 1b 73 f3 bf e0 bd e9 be 46 5d 85 3e
       2.6721435 -1.9019502 -0.45652676 0.26047724
000170 4e af 08 be 50 db 6c 3f fe 45 db 3f fc f6 8e 3f
       -0.13348123 0.92522144 1.7130735 1.1169124
000180 4e 02 b4 3f 57 f8 31 40 fc 82 82 40 0e 98 d2 3e
       1.4063203 2.7807825 4.0784893 0.41131634
000190 97 8e 86 40 41 df fb 3c cb 86 3b c0 6a 57 05 40
       4.204906 0.030746104 -2.930102 2.0834603
0001a0 b8 2f 62 bf 3f ed 35 40 a5 3f f7 3e f5 ec 73 bf
       -0.88354063 2.8426054 0.48290744 -0.9528344
0001b0 a4 11 07 3e 04 96 d5 bc d7 60 9a be a6 24 29 3f
       0.13190323 -0.02607251 -0.30152008 0.66071546
0001c0 c9 b8 2a 3f 78 30 75 3f 9d 62 12 bf 39 fc 25 bf
       0.6668821 0.9577708 -0.5718172 -0.64837986
0001d0 b0 bb 16 bf ee 17 b1 3f 31 a0 d5 be 8c a1 2d 3f
       -0.5888014 1.3835428 -0.4172378 0.67824626
0001e0 32 49 5e 40 ce 78 84 bd e5 9d 6d 3f 91 21 9a 3e
       3.4732175 -0.06468354 0.9281905 0.30103734
0001f0 c1 2f 94 40 49 fa a7 3f c5 b9 1d be 06 e1 38 c0
       4.6308293 1.3123256 -0.15402897 -2.8887343
000200 41 40 58 ba de 16 2a 3d d9 e1 ed bd ef fa 6f c0
       -0.00082493207 0.041525714 -0.11615343 -3.7496908
000210 8e 81 24 40 46 16 bd bf 32 e3 8d bf fa f3 16 bf
       2.5704074 -1.4772422 -1.108496 -0.5896603
000220 c3 a3 f6 bd e3 84 f6 bd da 75 90 3f b3 d7 25 40
       -0.12042954 -0.12037065 1.1285965 2.5912902
000230 59 d5 5d 3f 94 ea 37 bf 92 e8 03 3e ce c4 9d 3e
       0.8665367 -0.7184231 0.12881687 0.30814213
000240 47 59 56 bb a3 20 f8 3f a8 62 4c 3e 1a 3f 8e be
       -0.0032707022 1.938496 0.1995951 -0.27782518
000250 a2 ce 59 3f 06 c3 1d c0 09 c2 8c bf 65 62 8b bf
       0.8508092 -2.4650283 -1.0996715 -1.0889403
000260 36 12 8a 3d 91 30 38 3f 0e a3 8f bf 90 33 d7 bf
       0.06741755 0.71949106 -1.1221635 -1.6812611
000270 ff 3e 13 40 be 9e 2f c0 ec cc 1d bf 1c bd d5 bf
       2.30072 -2.7440639 -0.6164081 -1.6698337
000280 f0 69 30 3e 4a c5 5e be b2 1e af 3f 86 97 ce 3f
       0.17227912 -0.21754947 1.3681242 1.6139991
000290 d9 94 7e bf e0 81 a8 3f 9d d9 04 be 23 ac 4d c0
       -0.99445873 1.3164635 -0.12973638 -3.2136314
0002a0 af 40 3c bf 30 f9 80 40 d6 f9 93 bf 57 3c 0a 40
       -0.735362 4.0304184 -1.1560619 2.1599329
0002b0 73 cd 99 3e 28 5f 1b 3f 60 ed 25 40 48 95 8c c0
       0.30039558 0.6069207 2.5926132 -4.393223
0002c0 d9 09 04 3f 05 d1 71 c0 dd 89 17 3d 18 81 2f be
       0.51577526 -3.7783825 0.03699671 -0.17139089
0002d0 f6 3f 08 be 2a 01 ac 3f 68 a4 c1 3e 24 8f 98 3e
       -0.13305649 1.3437855 0.37820745 0.29796708
0002e0 e2 73 70 bf 06 a8 40 3f b6 e9 4f 3f ff cf 02 c0
       -0.93926823 0.75256383 0.8121599 -2.043945
0002f0 81 78 bf 3e b5 b8 03 40 20 3f 0a c0 d8 8a 4f c0
       0.37396625 2.0581486 -2.1601028 -3.2428493
000300 f8 9f 2a bf 18 8b 45 3f 5a cc ea 3e 5c 8f 7c be
       -0.6665034 0.77165365 0.45859033 -0.24664062
000310 df 3b 88 3f 81 e3 01 3e 1e 89 a8 3d d2 4c 3d 3e
       1.0643271 0.12684442 0.08229278 0.18486336
000320 3c 91 0f 3f 53 3e c1 be 91 c3 47 bf 65 b6 d3 3f
       0.56080985 -0.37742862 -0.78032786 1.6540037
000330 e1 1c 06 40 21 51 1a 40 33 9a d2 3e 6b 32 e1 3f
       2.0955126 2.4112017 0.4113327 1.7593511
000340 75 c1 1d 3f 23 8b a9 bf 5e dc 3d bf 16 a6 c1 3f
       0.61623317 -1.3245586 -0.7416438 1.512881
000350 9a 74 27 c0 3c 9b a4 3f 55 cd 28 3f 69 ae 1d 3f
       -2.6164918 1.2859874 0.6593831 0.61594254
000360 1e a9 46 40 7f 82 98 3e 10 24 a2 bf 15 b0 b1 bf
       3.104072 0.2978706 -1.2667255 -1.3881861
000370 c9 34 73 be 8f de 82 be a0 d3 b4 bc dc f1 67 3f
       -0.23750605 -0.25560424 -0.022073567 0.90603423
000380 43 7a bc 3f c2 a0 bc 3f 75 9c 9f be 89 53 8f bf
       1.4724811 1.4736559 -0.31174055 -1.1197368
000390 53 4b 3a 3f b9 d1 e1 bf c1 f2 1a bf 01 ba 2a 40
       0.72771186 -1.7642127 -0.60526663 2.6676028
0003a0 bb cf bc bf 97 a8 27 3f 3d 91 d7 3f 56 35 10 3e
       -1.4750894 0.6549162 1.6841198 0.14082846
0003b0 13 c1 5d 40 90 67 c2 bf b8 4c 57 bf 1e 9c 81 40
       3.4649093 -1.5187855 -0.8410144 4.0503073
0003c0 81 f6 93 bf 5d 8e 9a 3f 5a e5 ce 3f 4f 29 89 3f
       -1.1559602 1.2074696 1.6163743 1.0715731
0003d0 26 1c a2 3f 93 d9 00 40 af 5c 8b 3f 83 50 ad bf
       1.266484 2.0132797 1.088766 -1.3540195
0003e0 60 63 e2 3e ff 22 55 bf e5 5a a0 bf d5 ea 0d c0
       0.44216442 -0.83256525 -1.2527739 -2.217458
0003f0 c8 c2 40 40 91 fd 2a c0 af 6d d2 bd 4c c8 a9 3f
       3.0118885 -2.6717265 -0.10274827 1.3264251

layer1.weight f4 [459, 500]
000000 ef d0 4b 40 b6 0a 8a 3f b0 2b 54 3e 8d 4d e3 3e
       3.1846273 1.0784519 0.2071979 0.44395104
000010 d2 13 ec bf a6 bc 48 3f 0a e1 be 3f 84 22 23 3f
       -1.8443549 0.78412855 1.4912426 0.6372454
000020 b1 91 26 3f e9 28 a2 3e 28 0b 23 c0 ee 5a 00 bf
       0.6506606 0.31671837 -2.547556 -0.5013875
000030 da ca cf 3c ee f1 e9 bf 95 68 86 be 89 61 cb 3e
       0.025365282 -1.8276956 -0.26251665 0.3972285
000040 d3 d2 30 bf 23 90 13 bf fd 79 88 bf 46 04 d8 bf
       -0.6907169 -0.5764181 -1.0662228 -1.6876304
000050 a7 4a bf bf 0a 0f 6b bf 4a a8 8c be b3 40 3a c0
       -1.4944657 -0.9181982 -0.27472144 -2.910199
000060 6b f1 a4 3f 9d 5f fa 3f 61 4c 8d 3d 96 24 e3 3e
       1.2886175 1.9560429 0.06899334 0.4436385
000070 8f 96 d2 3f 7d c4 27 3e a4 9e 2b 40 7d 81 7f 3f
       1.6452197 0.16383548 2.6815577 0.9980696
000080 c0 37 05 40 f0 b1 a6 3f 90 b4 b8 bf 46 a2 92 c0
       2.0815277 1.3023052 -1.4430103 -4.582309
000090 f5 ac ed bf 15 a7 ab 3e c1 5c 72 3f ec 0f ad bf
       -1.8568407 0.3352591 0.9467278 -1.3520484
0000a0 a8 c8 6e be 2d 56 c9 bf 5b 7f 35 3e 39 b3 b4 3f
       -0.23318732 -1.5729424 0.17724364 1.4117194
0000b0 1c 68 a7 3f c5 ca 3c 3f 3b b3 01 3f a3 3f 08 c0
       1.3078647 0.737469 0.5066411 -2.128884
0000c0 eb cc 35 3f 99 4f 16 40 b8 84 51 40 43 06 4d bf
       0.71015805 2.3486083 3.2737255 -0.8008768
0000d0 3e f5 ce bd 9a 04 6a c0 6a 60 1f 40 77 57 b7 bf
       -0.1010537 -3.6565309 2.4902596 -1.4323567
0000e0 b8 9c cb 3f 35 de 10 be 00 12 e7 be 7a cf 22 40
       1.5907202 -0.14147265 -0.4513092 2.5439134
0000f0 fb 4a cd 3e 3a c2 08 40 69 25 83 bf 3f 18 61 40
       0.40096268 2.1368546 -1.0245792 3.5171049
000100 42 a9 a2 3f 71 a5 08 bf cb 3c 08 40 9e 21 d2 3e
       1.2707903 -0.53377444 2.1287105 0.41041273
000110 43 94 55 3e c1 31 a7 3e 15 88 1d 40 16 9c b7 3e
       0.20857339 0.32655147 2.4614308 0.35861272
000120 1c 1a 93 3f 56 6b ca bf c1 be ed 3e 5c b5 d7 bf
       1.1492343 -1.5814006 0.46434596 -1.6852221
000130 70 ed 10 be fa f6 6d 3d 39 32 e9 3f ba 92 38 3f
       -0.14153075 0.058096863 1.8218452 0.72098887
000140 6d 7a d9 bf 62 40 00 40 46 d6 2c 3e ab 70 9e 3f
       -1.6990486 2.0039296 0.16878614 1.2378134
000150 90 06 b8 bf 1b 03 18 3d 7a 22 83 3d f5 7d 18 c0
       -1.4377003 0.037112337 0.0640306 -2.3826878
000160 78 8c c4 3f 8f 82 9e bf cd 3d 42 bc 7f 3e ae be
       1.5355368 -1.2383593 -0.011855555 -0.34032056
000170 8c da fe 3e e4 34 1c 40 f3 43 63 40 21 59 f9 3f
       0.49776113 2.4407282 3.5510223 1.9480325
000180 90 ab d0 3f 9c 06 21 bf 74 34 0f 40 01 52 8f bf
       1.6302357 -0.6290071 2.2375765 -1.1196901
000190 1b 84 cb 3f 91 d7 2c 40 05 2c e0 3e 94 38 14 c0
       1.589969 2.7006571 0.43783584 -2.3159533
0001a0 fc e5 f6 be 8f a2 ce bf b1 14 1b c0 92 43 89 bf
       -0.4822234 -1.6143359 -2.423138 -1.0723746
0001b0 f6 fb c9 3e 2a 4d b5 bf d1 bd de bd c5 ce 1f 3e
       0.39450043 -1.4164174 -0.10876048 0.1560622
0001c0 66 8b c8 bf 5f 7e 16 40 e8 74 71 c0 f7 ba 23 c0
       -1.5667541 2.351463 -3.7727604 -2.5582864
0001d0 9a a4 d3 be 86 9b 19 3f 23 dd d0 bf c1 a5 ac bd
       -0.4133652 0.60002935 -1.6317486 -0.084300525
0001e0 b3 73 70 bf 22 79 2e c0 f7 7a c5 be 6b 60 77 40
       -0.93926543 -2.7261434 -0.38570377 3.86526
0001f0 67 25 99 bf 33 6d 0d 40 b2 3a 17 c0 dd 53 53 40
       -1.1964539 2.20979 -2.3629575 3.3019936
000200 87 e3 bb 3e a7 2f d1 bf b6 3f 30 bf 34 e3 79 be
       0.36697027 -1.6342667 -0.68847215 -0.24403077
000210 79 97 9a 3f a7 65 9f 3f 1a 0c 63 c0 2a be d5 bd
       1.2077476 1.2452897 -3.5476136 -0.104366615
000220 5e 66 25 40 1c bf 1a 40 26 46 2b 3f f7 cb 04 3f
       2.584373 2.4179144 0.66903913 0.51873726
000230 d8 ea 2e bd f5 a6 98 3d 6d 6e 83 3f 05 b7 67 bf
       -0.042704433 0.074537195 1.0268074 -0.9051364
000240 46 fe de bf fb 0c 19 40 93 f9 8a bf 85 0b d5 bf
       -1.7421348 2.3914173 -1.0857414 -1.664414
000250 8c 17 a6 bf a7 2f 8d bf cd df 07 c0 c3 b5 af 3f
       -1.2975936 -1.1030167 -2.1230347 1.3727344
000260 d4 97 5c be 45 d3 b5 be 79 59 69 c0 ce 9b d2 3f
       -0.21542293 -0.35512748 -3.646086 1.6453798
000270 04 f6 09 bf 1a 38 88 bf 77 24 0c be 11 f7 38 40
       -0.53891015 -1.0642121 -0.13685785 2.8900797
000280 e4 98 22 3f ba 68 8f c0 90 b3 1b c0 c0 5a 45 3f
       0.6351454 -4.481534 -2.4328346 0.770916
000290 df 75 f9 be cd 24 4b 40 dc 5e d0 bf 49 7c 34 c0
       -0.4872274 3.1741211 -1.6278949 -2.8200858
0002a0 58 8b b5 3e b4 ee 85 bf 86 c6 e1 3e e4 44 a1 3f
       0.35457873 -1.0463471 0.44096774 1.2599149
0002b0 77 17 1a 3f 4a 21 e0 3e 43 56 d0 3f 2b b9 06 bf
       0.60192055 0.43775398 1.6276325 -0.52626294
0002c0 7a 1f 80 3f 2e e1 10 c0 2c ea 2d bf 95 1d 73 bf
       1.0009606 -2.2637439 -0.6793544 -0.94967014
0002d0 3a 54 3e 3e e5 db 8d 3f f5 62 8b 3f 06 d7 ef be
       0.18586817 1.1082731 1.0889574 -0.46843737
0002e0 91 b5 a5 be f3 6e 24 40 9f c4 f0 bf 44 3a 9a 3e
       -0.32365087 2.5692718 -1.8810004 0.30122578
0002f0 18 12 59 bf 3d 16 02 40 fa e3 57 40 9c 68 95 bf
       -0.84793234 2.0326073 3.3732896 -1.1672549
000300 2b 36 53 40 02 23 82 3f fa d9 5b bf 33 db 42 bf
       3.3001812 1.0166934 -0.8587948 -0.7611572
000310 a2 29 21 c0 a0 d3 d5 3f 1c 71 c7 bf 25 cb df 3f
       -2.518166 1.6705208 -1.5581393 1.748387
000320 af 29 87 3f 6e dd 6a 3f 89 4f 40 c0 9e 27 e3 bf
       1.0559596 0.91744125 -3.0048544 -1.7746465
000330 0a 2a 38 bf 58 bd 20 c0 f7 a6 d0 3e 23 e2 14 bf
       -0.71939147 -2.5115566 0.40752384 -0.5815756
000340 61 3a 5f c0 a6 39 90 3f 34 1d 24 bf 61 67 d9 3d
       -3.4879382 1.1267593 -0.6410706 0.10615421
000350 17 58 a3 be 13 b4 90 40 35 f5 bf be 5b e8 9e 3f
       -0.31903145 4.5219817 -0.37491766 1.2414659
000360 43 96 24 c0 20 15 25 bf da cc be bf 4a 6e 19 bf
       -2.5716712 -0.6448536 -1.4906266 -0.5993391
000370 06 f2 41 3f e1 7b df 3f 99 09 a8 bf 98 13 ad bf
       0.75759923 1.745968 -1.3127929 -1.3521605
000380 1b ba 07 c0 4b 55 48 bf a8 e5 11 bf ac cf 7e 3e
       -2.120734 -0.78255147 -0.5699105 0.24883908
000390 cb e1 95 3e c4 b7 1c c0 32 54 c8 bd 87 43 13 c0
       0.2927383 -2.4487162 -0.09781684 -2.3009965
0003a0 d7 ea 31 3f 82 d3 6b 40 68 5b 61 3e 93 8a cc be
       0.6949896 3.6847844 0.22007525 -0.39949474
0003b0 a7 0c 14 3f 49 6b 4e 3f 62 14 19 bf eb 0d 24 c0
       0.57831806 0.80632454 -0.59796727 -2.5633495
0003c0 80 66 03 40 8b 21 38 3f 24 5a 26 3f 27 60 94 be
       2.053131 0.7192618 0.64981294 -0.28979608
0003d0 b7 69 1a bd 25 e0 d5 be ad 7e a3 bd 52 7d ed bf
       -0.037698474 -0.4177257 -0.07983146 -1.855387
0003e0 ac bb 8a 40 51 a9 94 be fb 4c 2e 3c 81 b0 18 bf
       4.335409 -0.29035428 0.010638471 -0.59644324
0003f0 94 91 4a 40 23 e3 ce bf 61 a9 90 3f 64 4f 5b bf
       3.1651354 -1.6163067 1.130169 -0.85668015

layer2.weight f4 [500, 3]
000000 22 ad 97 be ea c2 30 c0 f0 90 6b bf a1 a8 47 40
       -0.29624277 -2.7618966 -0.9201803 3.1196673
000010 b3 55 f1 be f6 14 b4 3e cb 62 c1 be 3f 36 c4 bf
       -0.47135696 0.35172242 -0.37770686 -1.5329055
000020 11 f6 25 3f 08 f8 7a 3d 13 18 37 c0 66 b0 2e bf
       0.6482859 0.061271697 -2.8608444 -0.6823791
000030 71 e8 7e 3e af 17 36 ba b8 e2 11 c0 29 26 27 3f
       0.24893357 -0.0006946278 -2.2794628 0.652926
000040 56 7c a9 3f 2c 06 c6 3f 11 52 a3 bf 2f 4f c0 3f
       1.3241069 1.5470634 -1.275942 1.5024165
000050 73 16 07 40 9a 00 28 3f 7c 56 34 c0 72 e9 0a 40
       2.1107452 0.6562592 -2.8177786 2.1704984
000060 e6 08 2a 3f 95 30 d5 3f 24 4a 98 bf fb 93 c7 be
       0.6641983 1.6655451 -1.1897626 -0.38980088
000070 df 63 c7 be a1 74 a1 3f 07 8c 98 3f eb 02 9d bf
       -0.38943383 1.2613717 1.1917733 -1.2266515
000080 ae f3 10 bf b2 e0 03 c0 c2 44 8c be c6 ce 17 c0
       -0.56621826 -2.0605893 -0.27396208 -2.3719954
000090 88 a8 76 bf c0 65 e3 be 98 25 d4 bf c7 8d 99 3f
       -0.9635091 -0.44413567 -1.6573973 1.1996392
0000a0 11 c0 27 40 8d a7 38 3f ab 7d 30 40 c0 87 c7 3f
       2.6210978 0.7213066 2.7576702 1.5588303
0000b0 6c 5a 63 bf fa 8b ca bf d0 f4 ae 3f 2c bd 69 bf
       -0.8880985 -1.5823967 1.3668461 -0.9130428
0000c0 d4 ff 9f bc e0 50 2b c0 17 13 e7 be 27 cf 81 be
       -0.019531168 -2.6768112 -0.45131752 -0.25353357
0000d0 4f 55 c3 3f 21 e4 6e 3f f1 58 74 3f d7 57 f9 bc
       1.5260409 0.9331685 0.95448214 -0.030437393
0000e0 ee bd 1a 40 ef bd f2 bf f4 1b 02 bf 05 2c 48 c0
       2.4178424 -1.8964213 -0.50823903 -3.1276867
0000f0 35 b0 3b be c3 29 92 3f b3 73 e7 3f 7d 65 3b bf
       -0.18328936 1.1418995 1.8082184 -0.73201734
000100 8a 49 04 3f d3 c6 45 bf 71 2c 29 40 77 9c 8e 3f
       0.5167471 -0.77256507 2.6433375 1.1141499
000110 3a b1 61 be af 6d 12 40 20 98 90 3f 7c 72 01 bf
       -0.22040263 2.2879446 1.1296425 -0.50565314
000120 7a 1d 54 be c6 84 6a bf fc 11 b1 bf 88 68 78 bf
       -0.2071437 -0.91608846 -1.3833613 -0.970345
000130 3b b9 c9 be 72 2d 0f 3e cf 1d 73 3f e4 d4 85 be
       -0.39399132 0.1398218 0.9496736 -0.26138985
000140 aa 56 59 3f 3b 82 b2 3f 6c b2 a8 bf 61 43 71 3d
       0.84897864 1.3945993 -1.317945 0.05890215
000150 63 95 1f bf 24 f4 3f 3f bc af 79 bf c8 d7 22 3f
       -0.6233732 0.74981904 -0.97533774 0.63610506
000160 4f b6 5e bc d7 56 79 be 2b 0d 0f 3f 98 ee 88 bf
       -0.01359327 -0.24349533 0.5587947 -1.0697813
000170 9a 26 de bf be c0 46 c0 9a 51 ba 3f f5 c0 f2 bf
       -1.735553 -3.105514 1.4556153 -1.8965136
000180 38 af dc bf 7b ed cc 3e f6 4b b5 bf ca 89 41 c0
       -1.7240973 0.40024933 -1.4163806 -3.024035
000190 f6 ca 96 bf ff 79 00 40 7e 68 d9 3e 16 76 1e c0
       -1.1780689 2.007446 0.42462534 -2.4759574
0001a0 1b 0a 1e 3f 29 82 61 bf 9f f7 f9 3d 26 7c 96 3f
       0.6173417 -0.88089234 0.12205433 1.1756637
0001b0 46 46 f3 bf b4 43 46 40 c1 0f e0 3f b9 d3 87 bf
       -1.9005821 3.0978823 1.7504808 -1.0611488
0001c0 b1 ba 02 bf e6 63 3b bf f0 63 8f be 52 4b 06 c0
       -0.5106612 -0.7319931 -0.28005934 -2.0983472
0001d0 7e b7 92 3f 90 f2 c9 3f cd 67 ec be 92 fb 5d 3f
       1.1462247 1.5777149 -0.46172944 0.8671199
0001e0 2a f2 fc 3f d7 c1 c9 3f 4c ad 44 3f 6c 10 66 bf
       1.9761403 1.576228 0.7682693 -0.8986881
0001f0 8a 47 af be ee b5 eb 3e f2 d0 aa bf b0 62 68 3f
       -0.34234267 0.4603724 -1.3345015 0.90775585
000200 3a 2f 00 bf f4 4f 33 bf 0b ca 95 bf 34 86 4a 40
       -0.5007206 -0.70043874 -1.1702284 3.164441
000210 ee cd 60 3f 78 4c a1 3f 39 6d 10 bf 77 d7 3d bf
       0.87814224 1.2601461 -0.5641666 -0.741569
000220 e5 5c e3 3f 34 85 fd be f1 e7 ff 3f 0c 58 45 bf
       1.7762724 -0.49515688 1.9992658 -0.77087474
000230 6e 18 98 bf c7 c3 50 3f f1 2c d4 bf 8e 3f 52 3f
       -1.1882455 0.8154873 -1.6576215 0.82128227
000240 d0 a1 1b c0 41 89 cc bf d4 b8 c9 3e 92 86 60 bf
       -2.4317513 -1.5979387 0.39398825 -0.8770534
000250 ba cb 31 3e 4c bd 72 3e 8d dc d4 3f d1 e2 50 3f
       0.17362872 0.23705024 1.6629807 0.81596094
000260 bf ee 63 bf 2c 87 fd be 99 c5 d9 3f b4 34 11 40
       -0.8903617 -0.4951719 1.7013427 2.2688417
000270 27 27 7b 3d a1 18 4b c0 5e 64 be bf ec 78 36 c0
       0.061316635 -3.1733782 -1.487438 -2.8511305
000280 75 3c 11 40 61 7a 94 bf f2 09 29 bd f8 34 b4 3e
       2.269315 -1.1599847 -0.04126925 0.35196662
000290 8a ed 1b bd 7e 76 ef bf 4a fd cd 3f 5b 38 8e bf
       -0.03806833 -1.8708036 1.6092923 -1.1110948
0002a0 9b eb a3 c0 13 ef 63 bf 23 ba 3e 40 a0 ad 1b 40
       -5.1225104 -0.89036673 2.980111 2.4324722
0002b0 6e 0d bb bf 43 38 bc 3f bc 3e 5a 3f 33 b8 6f 3f
       -1.4613473 1.470467 0.85251975 0.9364044
0002c0 10 47 01 ba fd 71 3e 3e c9 ea cb 3f 12 3c 01 40
       -0.00049315486 0.1859817 1.5931026 2.0192914
0002d0 3d d5 65 3f ef 88 9c bf b4 7b 0b bf 5a fe 28 3f
       0.897785 -1.2229289 -0.5448563 0.6601311
0002e0 e7 f6 b4 3c be 6a bb 3f d3 77 0b 40 9f 94 88 bf
       0.022090388 1.464195 2.1791885 -1.0670356
0002f0 1b 07 8a bf 31 8b 17 3f c6 dd 12 3d 8c 58 20 3e
       -1.0783418 0.59196764 0.03585603 0.15658778
000300 1e 73 a7 3e 3a 01 fa bf bf 6b dd be be 51 4d 3e
       0.32705015 -1.9531624 -0.43246266 0.20050713
000310 d6 42 b2 bf 25 1b ce bf bd 54 e2 3f 88 4d 3d 3d
       -1.3926647 -1.6102034 1.768211 0.046216518
000320 66 27 96 bd b6 0d 50 bf a4 59 d1 bf 22 45 d2 be
       -0.073317334 -0.8127092 -1.6355481 -0.4106837
000330 20 c6 c6 bf fa 99 e8 bb 54 eb 1e bf 3b b5 26 3f
       -1.5529213 -0.0070984336 -0.6207783 0.65120286
000340 e1 34 4c bf ba 3c c9 bf b0 73 d6 3f 30 1a 1d 3f
       -0.79768187 -1.5721657 1.6754055 0.61368084
000350 be d6 28 3e 13 12 f4 be dc fa cc bf 45 63 f1 bf
       0.16488168 -0.4767004 -1.6014056 -1.885842
000360 84 14 63 40 ed 69 5c bf 3e c4 f1 3f 21 ca 71 bf
       3.5481272 -0.8609913 1.8888013 -0.9444905
000370 04 0a 07 40 2a c4 ac 3e 9f 8a 3d bf f1 29 b0 bf
       2.1099863 0.3374341 -0.74039644 -1.37628
000380 f5 a4 9c 3e 41 86 33 bf c4 1d 64 bf e5 d1 31 bf
       0.30594602 -0.7012673 -0.8910792 -0.694609
000390 5e eb c0 bf fd 38 7a be 5d a7 ed 3f 66 14 08 40
       -1.5071828 -0.24435802 1.85667 2.126245
0003a0 e2 e4 10 bf b6 ef 9f 3f ce 69 c5 be 00 03 a8 bd
       -0.5659925 1.2495029 -0.38557285 -0.08203697
0003b0 ec 48 ed bf 0e 67 92 3f 20 c6 ca 3f d3 bd 43 3f
       -1.8537879 1.14377 1.5841713 0.76461524
0003c0 39 a1 29 40 bb 69 0c c0 7f df b4 3e 27 56 40 3f
       2.6504653 -2.1939533 0.35326764 0.7513146
0003d0 98 6e d8 bf bb 34 b8 bf d7 d8 ac be 9c 37 05 c0
       -1.690875 -1.4391092 -0.33759186 -2.0815191
0003e0 16 f8 68 3f d0 e9 8a be d5 e9 2a 40 cf 9b bc 3e
       0.9100355 -0.2713151 2.670522 0.36837623
0003f0 f9 a8 33 be 21 e8 a6 bf e2 ac 40 bf 4e 69 e8 be
       -0.17544927 -1.303959 -0.752638 -0.4539284
